…
'feature', 'replay': False, 'replay_strategy': 'random', 'repaly_num_samples': 100, 'ewc': False, 'ewc_strategy': 'ewc', 'ewc_lambda': 0.0001, 'subgraph_train': False, 'num_hops': 2, 'logname': 'ECL-Informer', 'time': '2023-09-04-23:00:00.174970', 'path': 'exp/ECL-Informer2023-09-04-23:00:00.174970', 'num_workers': 4, 'start_train': 0, 'train_mode': 'pretrain', 'get_score': False, 'use_cm': True, 'logger': <Logger __main__ (INFO)>}
2023-09-04 23:00:00,175 - [*] phase 0 start training
train 8449
val 2785
test 2785
2023-09-04 23:00:00,250 - [*] phase 0 Dataset load!
Correction_Module(
  (Aligner): Linear(in_features=128, out_features=128, bias=True)
  (Refiner): Refiner(
    (ref): ModuleList(
      (0-1): 2 x Ref_block(
        (norm): LayerNorm((128,), eps=1e-05, elementwise_affine=True)
        (dropout): Dropout(p=0.2, inplace=False)
        (attn_fn): ReLUSquared()
        (to_hidden): Sequential(
          (0): Linear(in_features=128, out_features=512, bias=True)
          (1): SiLU()
        )
        (to_qk): Sequential(
          (0): Linear(in_features=128, out_features=32, bias=True)
          (1): SiLU()
        )
        (offsetscale): OffsetScale()
        (to_out): Sequential(
          (0): Linear(in_features=128, out_features=64, bias=True)
          (1): Linear(in_features=64, out_features=128, bias=True)
        )
        (shrinkage): Shrinkage(
          (gap): AdaptiveAvgPool1d(output_size=1)
          (fc): Sequential(
            (0): Linear(in_features=128, out_features=128, bias=True)
            (1): ReLU(inplace=True)
            (2): Linear(in_features=128, out_features=128, bias=True)
            (3): Sigmoid()
          )
        )
        (norm_attn): Sequential(
          (0): Transpose()
          (1): BatchNorm1d(128, eps=1e-05, momentum=0.1, affine=True, track_running_stats=True)
          (2): Transpose()
        )
        (norm_ffn): Sequential(
          (0): Transpose()
          (1): BatchNorm1d(128, eps=1e-05, momentum=0.1, affine=True, track_running_stats=True)
          (2): Transpose()
        )
        (self_attn): _MultiheadAttention(
          (W_Q): Linear(in_features=128, out_features=128, bias=True)
          (W_K): Linear(in_features=128, out_features=128, bias=True)
          (W_V): Linear(in_features=128, out_features=128, bias=True)
          (sdp_attn): _ScaledDotProductAttention(
            (attn_dropout): Dropout(p=0, inplace=False)
          )
          (to_out): Sequential(
            (0): Linear(in_features=128, out_features=128, bias=True)
            (1): Dropout(p=0.2, inplace=False)
          )
        )
        (dropout_attn): Dropout(p=0.0, inplace=False)
      )
    )
    (rec): Sequential(
      (0): Rec_block(
        (norm): LayerNorm((128,), eps=1e-05, elementwise_affine=True)
        (dropout): Dropout(p=0.2, inplace=False)
        (attn_fn): ReLUSquared()
        (to_hidden): Sequential(
          (0): Linear(in_features=128, out_features=512, bias=True)
          (1): SiLU()
        )
        (to_qk): Sequential(
          (0): Linear(in_features=128, out_features=32, bias=True)
          (1): SiLU()
        )
        (offsetscale): OffsetScale()
        (to_out): Sequential(
          (0): Linear(in_features=128, out_features=64, bias=True)
          (1): ReLU()
          (2): Linear(in_features=64, out_features=32, bias=True)
          (3): ReLU()
          (4): Linear(in_features=32, out_features=64, bias=True)
          (5): ReLU()
          (6): Linear(in_features=64, out_features=128, bias=True)
        )
        (shrinkage): Shrinkage(
          (gap): AdaptiveAvgPool1d(output_size=1)
          (fc): Sequential(
            (0): Linear(in_features=128, out_features=128, bias=True)
            (1): ReLU(inplace=True)
            (2): Linear(in_features=128, out_features=128, bias=True)
            (3): Sigmoid()
          )
        )
        (self_attn): _MultiheadAttention(
          (W_Q): Linear(in_features=128, out_features=128, bias=True)
          (W_K): Linear(in_features=128, out_features=128, bias=True)
          (W_V): Linear(in_features=128, out_features=128, bias=True)
          (sdp_attn): _ScaledDotProductAttention(
            (attn_dropout): Dropout(p=0, inplace=False)
          )
          (to_out): Sequential(
            (0): Linear(in_features=128, out_features=128, bias=True)
            (1): Dropout(p=0, inplace=False)
          )
        )
      )
    )
    (rec_head): ReconHead(
      (dropout): Dropout(p=0.1, inplace=False)
      (linear): Linear(in_features=128, out_features=8, bias=True)
    )
  )
)
dropout 0.05
dropout 0.05
True
1 True None
2023-09-04 23:00:00,702 - [*] phase 0 Training start
train 8449
2023-09-04 23:00:33,364 - epoch:0, training loss:1.1745 validation loss:1.5501
(8449, 1)
(8449, 1) True
train 8449
vs, vt 1.5501081686128269 1.8290780132467097
Updating learning rate to 6.899583955836529e-06
Updating learning rate to 6.899583955836529e-06
…
